<class 'pandas.core.frame.DataFrame'>
RangeIndex: 36535 entries, 0 to 36534
Data columns (total 2 columns):
v1    36535 non-null object
v2    36535 non-null object
dtypes: object(2)
memory usage: 570.9+ KB
_________________________________________________________________
Layer (type)                 Output Shape              Param #   
=================================================================
inputs (InputLayer)          (None, 250)               0         
_________________________________________________________________
embedding_1 (Embedding)      (None, 250, 50)           75000     
_________________________________________________________________
lstm_1 (LSTM)                (None, 64)                29440     
_________________________________________________________________
FC1 (Dense)                  (None, 256)               16640     
_________________________________________________________________
activation_1 (Activation)    (None, 256)               0         
_________________________________________________________________
dropout_1 (Dropout)          (None, 256)               0         
_________________________________________________________________
out_layer (Dense)            (None, 1)                 257       
_________________________________________________________________
activation_2 (Activation)    (None, 1)                 0         
=================================================================
Total params: 121,337
Trainable params: 121,337
Non-trainable params: 0
_________________________________________________________________
Train on 24843 samples, validate on 6211 samples
Epoch 1/10

  128/24843 [..............................] - ETA: 8:04 - loss: 0.6923 - acc: 0.5781
  256/24843 [..............................] - ETA: 4:57 - loss: 0.6855 - acc: 0.6797
…
